…
<figure class="highlight plaintext"><table><tr><td class="code"><pre><span class="line">vgg = torchvision.models.vgg16(pretrained=True)</span><br><span class="line"></span><br><span class="line"></span><br><span class="line">==========================================================================================</span><br><span class="line">Layer (type:depth-idx)                   Output Shape              Param #</span><br><span class="line">==========================================================================================</span><br><span class="line">Vgg16                                    --                        --</span><br><span class="line">├─VGG: 1-1                               [1, 1000]                 --</span><br><span class="line">│    └─Sequential: 2-1                   [1, 512, 7, 7]            --</span><br><span class="line">│    │    └─Conv2d: 3-1                  [1, 64, 224, 224]         1,792</span><br><span class="line">│    │    └─ReLU: 3-2                    [1, 64, 224, 224]         --</span><br><span class="line">│    │    └─Conv2d: 3-3                  [1, 64, 224, 224]         36,928</span><br><span class="line">│    │    └─ReLU: 3-4                    [1, 64, 224, 224]         --</span><br><span class="line">│    │    └─MaxPool2d: 3-5               [1, 64, 112, 112]         --</span><br><span class="line">│    │    └─Conv2d: 3-6                  [1, 128, 112, 112]        73,856</span><br><span class="line">│    │    └─ReLU: 3-7                    [1, 128, 112, 112]        --</span><br><span class="line">│    │    └─Conv2d: 3-8                  [1, 128, 112, 112]        147,584</span><br><span class="line">│    │    └─ReLU: 3-9                    [1, 128, 112, 112]        --</span><br><span class="line">│    │    └─MaxPool2d: 3-10              [1, 128, 56, 56]          --</span><br><span class="line">│    │    └─Conv2d: 3-11                 [1, 256, 56, 56]          295,168</span><br><span class="line">│    │    └─ReLU: 3-12                   [1, 256, 56, 56]          --</span><br><span class="line">│    │    └─Conv2d: 3-13                 [1, 256, 56, 56]          590,080</span><br><span class="line">│    │    └─ReLU: 3-14                   [1, 256, 56, 56]          --</span><br><span class="line">│    │    └─Conv2d: 3-15                 [1, 256, 56, 56]          590,080</span><br><span class="line">│    │    └─ReLU: 3-16                   [1, 256, 56, 56]          --</span><br><span class="line">│    │    └─MaxPool2d: 3-17              [1, 256, 28, 28]          --</span><br><span class="line">│    │    └─Conv2d: 3-18                 [1, 512, 28, 28]          1,180,160</span><br><span class="line">│    │    └─ReLU: 3-19                   [1, 512, 28, 28]          --</span><br><span class="line">│    │    └─Conv2d: 3-20                 [1, 512, 28, 28]          2,359,808</span><br><span class="line">│    │    └─ReLU: 3-21                   [1, 512, 28, 28]          --</span><br><span class="line">│    │    └─Conv2d: 3-22                 [1, 512, 28, 28]          2,359,808</span><br><span class="line">│    │    └─ReLU: 3-23                   [1, 512, 28, 28]          --</span><br><span class="line">│    │    └─MaxPool2d: 3-24              [1, 512, 14, 14]          --</span><br><span class="line">│    │    └─Conv2d: 3-25                 [1, 512, 14, 14]          2,359,808</span><br><span class="line">│    │    └─ReLU: 3-26                   [1, 512, 14, 14]          --</span><br><span class="line">│    │    └─Conv2d: 3-27                 [1, 512, 14, 14]          2,359,808</span><br><span class="line">│    │    └─ReLU: 3-28                   [1, 512, 14, 14]          --</span><br><span class="line">│    │    └─Conv2d: 3-29                 [1, 512, 14, 14]          2,359,808</span><br><span class="line">│    │    └─ReLU: 3-30                   [1, 512, 14, 14]          --</span><br><span class="line">│    │    └─MaxPool2d: 3-31              [1, 512, 7, 7]            --</span><br><span class="line">│    └─AdaptiveAvgPool2d: 2-2            [1, 512, 7, 7]            --</span><br><span class="line">│    └─Sequential: 2-3                   [1, 1000]                 --</span><br><span class="line">│    │    └─Linear: 3-32                 [1, 4096]                 102,764,544</span><br><span class="line">│    │    └─ReLU: 3-33                   [1, 4096]                 --</span><br><span class="line">│    │    └─Dropout: 3-34                [1, 4096]                 --</span><br><span class="line">│    │    └─Linear: 3-35                 [1, 4096]                 16,781,312</span><br><span class="line">│    │    └─ReLU: 3-36                   [1, 4096]                 --</span><br><span class="line">│    │    └─Dropout: 3-37                [1, 4096]                 --</span><br><span class="line">│    │    └─Linear: 3-38                 [1, 1000]                 4,097,000</span><br><span class="line">==========================================================================================</span><br><span class="line">Total params: 138,357,544</span><br><span class="line">Trainable params: 138,357,544</span><br><span class="line">Non-trainable params: 0</span><br><span class="line">Total mult-adds (G): 15.48</span><br><span class="line">===========================
…
